app/src/main/assets/converted_model.tflite (tflite, 3556 bytes, 6 tensors)

FullyConnected/MatMul_bias f4 [8]
0	0x3ed06abe	0.40706438
1	0x3ea99f4e	0.33129352
2	0x3ea9b56f	0.33146235
3	0x3f27eab6	0.65592515
4	0x3e5033ef	0.20332311
5	0x3e7d0bbf	0.24711512
6	0xbf18bdd5	-0.5966466
7	0x3e3962c2	0.1810408

FullyConnected/W/transpose f4 [8, 50]
0	0xbdfa4a73	-0.12221231
1	0xbee7e481	-0.45291522
2	0x3e95bc39	0.29245165
3	0x3eb3a924	0.35089982
4	0x3e8656c1	0.26238063
5	0xbec6834a	-0.3877204
6	0x3e986f6c	0.29772508
7	0x3f4f8128	0.8105645
8	0x3e750b33	0.23930053
9	0xbe8c6e12	-0.27427727
10	0xbef58a24	-0.47956955
11	0xbe85ebcf	-0.2615647
12	0x3e38c41e	0.18043563
13	0xbf12e205	-0.5737613
14	0x3e95a52a	0.29227573
15	0x3e4905cd	0.19631119
16	0x3f42ec23	0.76141566
17	0x3ecfd88e	0.40594906
18	0x3eebd6e1	0.46062377
19	0x3e94fd6b	0.29099593
20	0x3eebed10	0.46079302
21	0xbe0db0aa	-0.13836923
22	0x3efdc240	0.49562263
23	0xbf0a0da2	-0.5392705
24	0x3f4422e7	0.76615757
25	0x3e9badc8	0.30406022
26	0x3ef00ad8	0.46883273
27	0x3eaff06a	0.3436311
28	0x3f08a9a0	0.5338383
29	0xbeef3c0b	-0.46725497
30	0x3eb52cd2	0.35385758
31	0x3e8a6a25	0.27034107
32	0xbef497a4	-0.47771943
33	0xbf78a01f	-0.97119325
34	0x3edb7350	0.42861414
35	0x3f089f80	0.5336838
36	0x3e9eb98d	0.3100094
37	0x3ea38be4	0.31942666
38	0xbe727e51	-0.23680998
39	0xbecbdda4	-0.39817536
40	0xbddc68df	-0.1076219
41	0x3e66074f	0.22463726
42	0x3e8ea624	0.2786113
43	0xbf76cc5c	-0.9640558
44	0x3e81bdae	0.25340027
45	0x3e8b2c3f	0.27182195
46	0xbf0bee0d	-0.5466011
47	0xbf22e88c	-0.6363609
48	0xbf0a0180	-0.5390854
49	0xbd01770a	-0.031607665
50	0x3ef632c0	0.48085594
51	0x3f2bf770	0.67174435
52	0xbf366f72	-0.712638
53	0xbf061480	-0.5237503
54	0x3e381354	0.17976123
55	0xbd9ba668	-0.07600099
56	0xbeef7795	-0.4677092
57	0x3f82b1e1	1.0210534
58	0xbe9e3b3f	-0.30904576
59	0x3eaee336	0.34157723
60	0x3f659d5d	0.8969324
61	0x3ebc30f6	0.36756104
62	0xbe37fb9e	-0.17967078
63	0x3f16ff42	0.5898324
64	0xbf0f5641	-0.5599099
65	0xbe3607ac	-0.17776364
66	0x3f74d882	0.95642865
67	0xbf4f297c	-0.80922675
68	0xbf5dea1e	-0.8668536
69	0xbf0e9bba	-0.5570637
70	0xbe9b1b23	-0.3029414
71	0x3eebcbc7	0.46053907
72	0xbea12f3c	-0.3148135
73	0x3e3c7cc0	0.18406963
74	0xbf27d274	-0.655555
75	0xbee964e5	-0.4558479
76	0xbf514aa8	-0.8175454
77	0xbf09b811	-0.5379649
78	0x3f24032c	0.6406734
79	0x3f3479f8	0.7049861
80	0xbf44b407	-0.768372
81	0xbea176bd	-0.31535903
82	0x3f595a76	0.8490366
83	0xbb4b4f04	-0.0031022439
84	0xbf392ee6	-0.72337186
85	0x3f299736	0.66246355
86	0xbf0a10a2	-0.5393163
87	0xbf14e811	-0.58166605
88	0x3ebb9c24	0.36642563
89	0x3f443576	0.76644075
90	0x3eedfadd	0.46480456
91	0xbea8064a	-0.32817298
92	0x3e2be2bc	0.16785711
93	0x3e03c0a8	0.12866461
94	0xbea089ad	-0.31355038
95	0xbf016982	-0.5055162
96	0x3e49b688	0.19698536
97	0x3df5b51d	0.11997435
98	0x3e3f22de	0.18665645
99	0x3ec45d87	0.38352606
100	0x3ec7592d	0.38935223
101	0x3f34ccb9	0.7062488
102	0xbf3622d7	-0.7114691
103	0xbf19e5ec	-0.6011646
104	0x3e3abfa8	0.18237174
105	0xbd2ca114	-0.042145804
106	0xbef904b2	-0.48636395
107	0x3f7c7a06	0.98623693
108	0xbea200a0	-0.31641102
109	0x3ec3283c	0.38116634
110	0x3f60099f	0.8751468
111	0x3ec9654e	0.39335102
112	0xbe0b1c3a	-0.13584986
113	0x3f171973	0.5902321
114	0xbf11c1a1	-0.5693608
115	0xbe10a16b	-0.14124076
116	0x3f6c5a6a	0.9232546
117	0xbf4eb7a4	-0.80748963
118	0xbf66cf7e	-0.9016036
119	0xbf11b381	-0.56914526
120	0xbe8d2608	-0.27568078
121	0x3ec5cfe2	0.38635164
122	0xbeac2fb0	-0.33630133
123	0x3e4856da	0.19564381
124	0xbf361bbe	-0.7113608
125	0xbef379f5	-0.47553983
126	0xbf505621	-0.8138142
127	0xbf0ae8b3	-0.5426132
128	0x3f1e2600	0.61776733
129	0x3f3477c1	0.7049523
130	0xbf45ba54	-0.7723744
131	0xbeac386a	-0.3363679
132	0x3f6145a7	0.87996906
133	0x3cbf1a97	0.023328109
134	0xbf3dd1b6	-0.7414812
135	0x3f22f2a8	0.63651514
136	0xbf10202f	-0.5629911
137	0xbf0cc3aa	-0.5498606
138	0x3ec7932c	0.3897947
139	0x3f35e7fd	0.7105711
140	0x3ec02b2a	0.37532932
141	0xbeafad45	-0.34311882
142	0x3e40b206	0.1881791
143	0x3dab59e2	0.08366753
144	0xbe967041	-0.29382518
145	0xbee856ce	-0.45378727
146	0x3e4eeb68	0.20206988
147	0x3def775d	0.116926886
148	0x3e48c46e	0.19606182
149	0x3ea63191	0.3245969
150	0x3d2d38bb	0.04229043
151	0xbe93d962	-0.28876787
152	0x3dda56ba	0.10661073
153	0x3e4a1693	0.19735174
154	0x3ee24d53	0.4419962
155	0xbef91d20	-0.48655033
156	0x3e4fe9d3	0.2030404
157	0x3f97a0e8	1.184598
158	0x3e637b87	0.2221509
159	0xbe7f2e61	-0.24920036
160	0xbed2f635	-0.41203466
161	0xbe4d1334	-0.20026857
162	0x3e7d2b5e	0.24723575
163	0xbf06d412	-0.52667344
164	0x3e6a60d0	0.22888494
165	0x3e814f71	0.2525592
166	0x3f79e064	0.9760802
167	0x3e56a8b1	0.20962788
168	0x3e806dab	0.2508367
169	0x3e4b163d	0.19832702
170	0x3f0e47bc	0.5557821
171	0x3ca8969a	0.020579625
172	0x3f094f51	0.5363665
173	0xbf16594f	-0.58730024
174	0x3f53270b	0.8248145
175	0x3e6e3e4b	0.2326595
176	0x3ea4cdee	0.32188362
177	0x3e87a619	0.2649391
178	0x3f538518	0.8262496
179	0xbea05646	-0.3131582
180	0x3e41df0f	0.18932746
181	0x3e68fa4e	0.22751734
182	0xbece805d	-0.40332308
183	0xbf8ccf6e	-1.1000803
184	0x3e977352	0.2958017
185	0x3f582c52	0.8444263
186	0x3e37d5d5	0.17952664
187	0x3e4f14b5	0.20222743
188	0xbe50556d	-0.20345087
189	0xbe6768cb	-0.22598569
190	0x3cf00e12	0.029303584
191	0x3e555aca	0.20835415
192	0x3eda0a4a	0.42585975
193	0xbf8b35ad	-1.0875756
194	0x3e772dd6	0.24138579
195	0x3e6859e5	0.22690542
196	0xbf1debb6	-0.6168779
197	0xbf3af810	-0.73034763
198	0xbf20f64e	-0.6287583
199	0x3d690629	0.05689064
200	0xbdf66831	-0.12031592
201	0xbf16ffa8	-0.5898385
202	0x3effd83e	0.49969667
203	0x3ed3f74e	0.41399616
204	0x3e5b5c3d	0.21421905
205	0xbe428b6f	-0.18998502
206	0x3eb4565e	0.35222143
207	0xbf1e3315	-0.61796695
208	0x3e8ce458	0.27517962
209	0xbeb11258	-0.34584308
210	0xbf35f470	-0.7107611
211	0xbea9c8fa	-0.33161145
212	0x3e958c47	0.29208586
213	0xbf1983ce	-0.59966743
214	0x3ed33b7a	0.41256315
215	0x3e8ff1af	0.28114077
216	0xbf124d1e	-0.5714892
217	0x3f180eac	0.5939739
218	0x3f1f0e96	0.6213163
219	0x3ecff628	0.4061749
220	0x3f051561	0.51985747
221	0xbdefeb5b	-0.11714812
222	0x3ef7390f	0.4828572
223	0xbec9a077	-0.39380237
224	0x3f57e80f	0.8433847
225	0x3eac5b9e	0.33663648
226	0x3f1c03ae	0.60943115
227	0x3f02b4fc	0.5105741
228	0xbe2ab9e1	-0.1667247
229	0xbf19c26c	-0.6006229
230	0x3f10189d	0.56287557
231	0x3e7b17a1	0.24520732
232	0xbf37c8d0	-0.7179079
233	0xbf1b9518	-0.60774374
234	0x3f02ab09	0.5104223
235	0xbe2b410f	-0.16724037
236	0x3ed8f6a6	0.42375678
237	0x3ee5912e	0.44837326
238	0xbea88e5f	-0.3292112
239	0xbe9f52a6	-0.31117743
240	0xbdc2f003	-0.09518435
241	0x3e7b3a0f	0.24533866
242	0x3e51215b	0.2042288
243	0xbf21f5bc	-0.63265586
244	0x3e7066aa	0.23476663
245	0x3ec34e6e	0.38145775
246	0xbed9bb59	-0.42525747
247	0xbec775a5	-0.38956943
248	0xbed6a226	-0.41920584
249	0xbdeb9832	-0.11503638
250	0xbe193472	-0.14961413
251	0xbf0db008	-0.5534673
252	0x3ee092df	0.43862054
253	0x3ec0a9df	0.376296
254	0x3e4af502	0.19820026
255	0xbe539eb1	-0.20666005

FullyConnected_1/MatMul_bias f4 [8]
0	0xbf2de392	-0.6792537
1	0xbf25ff16	-0.64842355
2	0x3da2b9f7	0.07945626
3	0x3f87e68c	1.0617232
4	0x3f4e0176	0.8047098
5	0x3f126c77	0.57196754
6	0x3f9ea14f	1.2392977
7	0xbefe6991	-0.49689916

FullyConnected_1/W/transpose f4 [8, 8]
0	0x3f74be50	0.95602894
1	0xbf654620	-0.8956013
2	0xbf59707f	-0.8493728
3	0x3f41b025	0.756594
4	0x3f0230a1	0.5085545
5	0x3f35d010	0.71020603
6	0xbf680e83	-0.90647143
7	0x3f4a584d	0.79040986
8	0x3f62ed31	0.88643175
9	0xbf6a4f59	-0.91527325
10	0xbf6ac039	-0.9169956
11	0x3f380d56	0.7189535
12	0x3f110a2d	0.5665615
13	0x3f35b999	0.70986325
14	0xbf5d83fc	-0.8652952
15	0x3f4e021b	0.8047196
16	0xbece1050	-0.4024682
17	0x3f8c68e5	1.0969511
18	0x3f8eed35	1.116614
19	0xbe44d922	-0.19223455
20	0xbf83e8e1	-1.0305444
21	0xbf64cc23	-0.8937399
22	0x3e128bf2	0.14311197
23	0xbf64bc18	-0.8934951
24	0x3f726d4e	0.94698036
25	0xbe5cee54	-0.2157529
26	0xbea82385	-0.328396
27	0x3f94ad96	1.1615474
28	0x3f5d99f9	0.8656307
29	0x3f57f823	0.84363
30	0xbf8646bd	-1.0490338
31	0x3f3dc2b5	0.74125224
32	0x3f93c5d5	1.1544749
33	0x3dcc4f6c	0.09976086
34	0x3dc13b18	0.09435099
35	0x3facae93	1.3490776
36	0x3f118216	0.5683912
37	0x3f462f1a	0.7741562
38	0xbfae2813	-1.360598
39	0x3f2ca506	0.67439306
40	0xbe31812e	-0.17334434
41	0x3fab3648	1.337594
42	0x3fac5f22	1.3466532
43	0x3e2c7081	0.16839792
44	0xbf8986a5	-1.0744215
45	0xbf57f151	-0.84352595
46	0xbe2eee00	-0.17082977
47	0xbf670a8a	-0.90250456
48	0x3f93e3d9	1.1553909
49	0x3edc1383	0.42983636
50	0x3eddb229	0.43299988
51	0x3fbd3959	1.4783126
52	0x3f2247de	0.6339091
53	0x3f42270f	0.7584085
54	0xbfba81bd	-1.4570843
55	0x3f239964	0.6390593
56	0x3f232a79	0.63736683
57	0xbf8850e4	-1.0649686
58	0xbf8d02e9	-1.1016513
59	0x3ed26d26	0.410989
60	0x3f4feb3d	0.8121832
61	0x3f3ca6a5	0.7369178
62	0xbefd6d74	-0.4949757
63	0x3f54d410	0.8313608

my_output/MatMul_bias f4 [6]
0	0x3df4e0e8	0.1195696
1	0x3f218b86	0.6310352
2	0xbf3c154a	-0.73469985
3	0xbf2060c4	-0.6264765
4	0xbe754591	-0.23952319
5	0x3f34e803	0.7066652

my_output/W/transpose f4 [6, 8]
0	0x3ebb1c05	0.36544815
1	0x3ea5faf2	0.3241802
2	0x3eb762b4	0.35817492
3	0x3e6edc37	0.23326193
4	0x3f0f015e	0.5586146
5	0x3f0a61bb	0.54055375
6	0x3f122cbb	0.57099503
7	0xbcf463f9	-0.029832827
8	0x3e924127	0.28565332
9	0x3e9b3ed8	0.30321383
10	0xbec2bb21	-0.38033393
11	0x3f024ee5	0.50901634
12	0x3f0016ca	0.50034773
13	0xbe819bc3	-0.2531415
14	0x3f1356c8	0.5755429
15	0x3e9c7ce0	0.30564022
16	0x3f045cdc	0.5170419
17	0x3f08b6f0	0.5340414
18	0xbf1ccbec	-0.6124866
19	0x3e6f9a34	0.23398668
20	0x3e14ccf0	0.14531302
21	0xbf440321	-0.76567274
22	0xbc8ae4d2	-0.016954813
23	0x3f187057	0.59546417
24	0xbea6a5d3	-0.3254839
25	0xbe9d7962	-0.3075667
26	0x3e715f89	0.235716
27	0xbf1728b4	-0.59046483
28	0xbf3add84	-0.72994256
29	0x3d9fb58f	0.077983014
30	0xbf585911	-0.84510905
31	0xbe8228f3	-0.25421867
32	0xbeb66d06	-0.35630053
33	0xbec41288	-0.38295388
34	0x3ee083f6	0.43850678
35	0xbecbfce7	-0.39841387
36	0xbea21760	-0.3165846
37	0x3ee16035	0.44018713
38	0xbe79e48c	-0.2440359
39	0xbedbefe5	-0.42956463
40	0xbee33d73	-0.4438282
41	0xbee21514	-0.44156706
42	0x3ea586e7	0.32329485
43	0x3e543192	0.20722035
44	0x3e196c48	0.14982712
45	0x3ee5e3c4	0.44900334
46	0x3ec61201	0.3868561
47	0xbed5e5fa	-0.4177702
